all_results/vae_model.pth (torch, 714209 bytes, 14 tensors)

fc1.weight f4 [256, 40]
000000 90 71 b2 3d a7 87 1f 3e e0 11 e8 bd 76 f1 e0 3d
       0.087130666 0.15579091 -0.113315344 0.10983555
000010 f0 5f 47 3c 79 f2 b6 3c 2c b6 b7 bc 22 d4 d6 3c
       0.012168869 0.022332417 -0.022425734 0.0262242
000020 64 00 db 3d a4 a5 5b bd 6d 6c a7 3d d6 1b 1d 3d
       0.10693434 -0.053624764 0.081749775 0.038356625
000030 22 3b 56 3e a3 a0 16 3d 29 19 b8 3d d2 dc a2 3c
       0.20920995 0.03677429 0.08989174 0.019880686
000040 cd 74 c7 3d c5 10 d9 bc 3e 6d b6 bd 8a 64 ba bd
       0.09739075 -0.026497254 -0.08907555 -0.091012076
000050 c5 4d 8a bd 3e 86 5c 3b dc d8 d3 bc ca fc cb 3d
       -0.067531146 0.003364935 -0.025860243 0.09960325
000060 e4 e6 ac bd 3e 24 a9 3a ea 39 04 bd ee ad 68 bd
       -0.084424764 0.0012904478 -0.032281794 -0.056806497
000070 62 44 22 3d a3 b1 b0 bd 03 dd 7c 3d d3 9f a6 bd
       0.039615996 -0.086276315 0.06173421 -0.08135953
000080 8c 9e 01 3e 0d 80 a0 3b 25 b8 43 bd a2 a0 bd 3d
       0.12658137 0.0048980773 -0.047783036 0.09259154
000090 d6 ca 4a 3d b4 a3 da 3d a7 e2 00 3c 3d e7 90 bd
       0.049509846 0.10675755 0.007866538 -0.07075355
0000a0 bc db 90 bd b6 18 83 3d 22 95 18 3e 53 69 9a 3d
       -0.07073161 0.064011976 0.1490064 0.0753962
0000b0 95 66 82 3e a2 17 86 bd 23 58 ce 3d 2d 9f 0b bd
       0.2546889 -0.06547476 0.100754045 -0.03408735
0000c0 ff 03 eb 3d c5 71 84 bd 18 66 c9 bd 8b 43 7f bd
       0.114753716 -0.06467012 -0.09833926 -0.062320273
0000d0 88 63 f5 bc b7 75 8e 3d 6a 7b 04 3d 5c d8 ed 3c
       -0.029954687 0.06956046 0.03234426 0.029033832
0000e0 0b a2 5e 3d 4c fb 9e 3c 7e a9 e7 3d 36 9a 56 bd
       0.054353755 0.019406937 0.11311625 -0.05239316
0000f0 30 20 05 be f8 cc da bd a9 cb 95 3d e8 eb 1d bc
       -0.1300056 -0.10683626 0.07314236 -0.009638764
000100 c2 c1 81 3d 1c bb 1e bd 88 4d 1b 3e 9f 30 0e bd
       0.063357845 -0.03875266 0.15166295 -0.034714337
000110 67 d5 ad bd 9f d7 94 bd d0 32 f6 3d fe 7f 1d 3d
       -0.08487969 -0.07267689 0.120214105 0.03845214
000120 64 71 fb 3d 4f e9 a6 bd 98 f5 b4 bd 93 60 c3 bd
       0.12277487 -0.08149969 -0.08835906 -0.095399044
000130 38 d1 fe bd 1a a5 b8 3d 8b c4 81 3d cb d5 07 3d
       -0.12442249 0.090158656 0.06336316 0.033162873
000140 41 f9 a6 bd 6e 1a ba bd dd ea e2 3d 83 67 fd bb
       -0.0815301 -0.09087072 0.11079953 -0.007733287
000150 40 82 cc 3c 5a f5 08 3c 60 89 e6 3d 18 f1 88 bd
       0.024964452 0.008359278 0.11256671 -0.0668661
000160 79 d2 3d bd 5f e6 33 bc e6 e3 a7 bc a9 b3 34 bd
       -0.0463433 -0.010980218 -0.020494413 -0.04411665
000170 08 24 c5 3d 48 25 03 3e 1d c6 5e bd 6e 02 88 bd
       0.09626013 0.1280719 -0.054388154 -0.066410884
000180 e7 2e c2 3d 25 2c 97 bd ea 44 63 bd 3e e2 09 be
       0.09481602 -0.07381467 -0.055485643 -0.13465211
000190 ff 76 20 be 10 67 30 3d 2e 23 80 bd 30 4e 2b bd
       -0.15670393 0.043067038 -0.0625671 -0.041822612
0001a0 63 bc eb 3c 75 f1 6c bd dd fb c1 bd c3 30 d8 bd
       0.028776353 -0.05784746 -0.09471867 -0.105561756
0001b0 8d 76 24 be 53 57 c5 bd 4b 2f f3 3d de cc 5d bc
       -0.16060849 -0.096357964 0.11874255 -0.013537614
0001c0 fb ac c7 3c 01 8c f6 bd 9f 31 26 bd 23 7c 31 bd
       0.024374476 -0.120384224 -0.040574666 -0.043331277
0001d0 53 72 e2 3c 47 05 57 bd 6d 55 d4 bc 31 d7 85 bd
       0.027642405 -0.052495267 -0.02591964 -0.06535185
0001e0 59 54 89 3d 70 11 e1 bd 8b b2 43 3b d8 86 f1 bd
       0.06705541 -0.10989654 0.0029861059 -0.117932975
0001f0 7e 83 ca bd 81 eb 80 3a 30 aa 0d bd ee 5b 12 be
       -0.098883614 0.0009835811 -0.03458613 -0.14292881
000200 19 f4 43 3d aa e2 98 bc 3e 31 0d 3e 90 df 29 3d
       0.04784021 -0.01866277 0.13788316 0.04147297
000210 52 17 27 3c 81 f9 8e 3d c6 88 e6 bd 71 48 1d bd
       0.010198431 0.06981183 -0.11256556 -0.038399164
000220 c8 c0 30 be 4f 53 c1 bd 6e 86 9c bd 14 f2 c7 b9
       -0.1726104 -0.09439718 -0.07642828 -0.000381366
000230 f2 a0 8e 3d 93 63 9e bd 5d 65 ed 3a 6e 63 22 be
       0.06964292 -0.07733836 0.0018111874 -0.15858242
000240 e5 ff e8 bc 58 1c 0d bd 84 ec 9b 3d 23 bd b7 3d
       -0.028442333 -0.03445086 0.07613471 0.08971622
000250 23 5f 18 3e 61 d4 8b bd 86 f6 2e 3d 4b 4d 92 bd
       0.14880042 -0.068276174 0.04271557 -0.07143649
000260 b6 08 83 bc f2 0d c4 bd dd 86 27 3e 38 4d 1d be
       -0.015995365 -0.09572972 0.1636004 -0.15361488
000270 5b 5d e7 bb d7 36 04 3b 97 33 82 3d 06 ba a1 bd
       -0.0070606894 0.0020174289 0.06357496 -0.07896809
000280 bb ed 6a 3e b1 f1 31 be c5 75 a5 3d f7 94 48 be
       0.2294225 -0.17377354 0.080791034 -0.19588076
000290 1c b9 0b 3d be 79 5b bd 5f a8 be bd 53 73 ef 3d
       0.03411208 -0.0535829 -0.09309458 0.11691918
0002a0 b7 6a 80 3d 71 97 cf bb 0d ca c2 bd ac ec 81 3d
       0.06270354 -0.006335192 -0.095111944 0.0634397
0002b0 8b ed 29 3d ef f7 18 3d c5 97 f7 3c 0f db a4 3d
       0.041486304 0.037345823 0.030223737 0.080495946
0002c0 18 86 1e be 24 89 a2 3d f4 6d 42 3d 6a 63 e8 bd
       -0.1548084 0.07936314 0.04746814 -0.11347087
0002d0 6a c1 dd bc c9 85 e5 bc bc a2 f8 bc 41 e1 b2 bd
       -0.027069766 -0.028017895 -0.030351035 -0.0873437
0002e0 30 63 8a 3d 24 1f 6b 3d df eb 9c 3d f5 de 4e 3d
       0.067572 0.057402745 0.07662176 0.050505597
0002f0 06 d4 a7 bd a8 e7 03 3b b8 cb 8d 3c a2 5a 62 bd
       -0.08194737 0.0020127092 0.017309055 -0.055262215
000300 f1 7a 91 3d db 83 0c 3d 68 b9 4f bd d9 cd ad 3c
       0.07103527 0.034305435 -0.050713927 0.02121632
000310 3d de 2d bd 05 e2 95 bd 10 9e 62 bd 2f 65 1e bd
       -0.04244827 -0.073185004 -0.05532652 -0.038670715
000320 0b 44 40 be 0b 0c 76 bc c8 f9 1c 3e 60 d7 dd 3d
       -0.18775956 -0.01501752 0.15329659 0.10832095
000330 0a a6 bd bc 7a 10 09 3d 26 02 90 bd 95 d3 95 bd
       -0.023150463 0.03346298 -0.0703166 -0.07315747
000340 12 68 40 bd 91 ca a9 bc 02 66 6e 3b 04 78 ed 3d
       -0.04697425 -0.020726474 0.003637672 0.11595157
000350 0b d4 97 bd 43 8d 83 bd 93 0d 5b bc a8 87 f2 3d
       -0.07413491 -0.06423428 -0.013369936 0.118422806
000360 d3 e3 9c 3a b8 b9 6a bd fc 4f 15 3d 1a 03 57 3b
       0.0011969752 -0.05730602 0.036453232 0.0032808245
000370 97 c8 10 be 21 51 7b 3d ef a1 18 bd 8b c8 86 bd
       -0.14139019 0.061356667 -0.037263807 -0.06581219
000380 e5 f6 c7 bd e8 a7 21 3d 00 6c 6a 3d 67 c1 ef 3b
       -0.09763888 0.03946677 0.057231903 0.0073167565
000390 d7 20 b0 bd 29 ba a4 bd c5 53 0b be b0 53 00 3d
       -0.08600014 -0.0804332 -0.13606174 0.03132981
0003a0 ff aa 85 bd 53 29 c0 3d 59 a5 8a 3d e7 64 65 bd
       -0.065267555 0.09382882 0.06769819 -0.05600443
0003b0 9f 40 a6 bd 51 54 1a be d2 66 09 be 62 c8 a4 bd
       -0.08117794 -0.15071227 -0.13418129 -0.080460325
0003c0 3e 0d 4b 3d 21 fd f6 bd cc 04 1f bd e4 d7 db bd
       0.049573176 -0.12059999 -0.038822934 -0.10734537
0003d0 e1 ce b3 bd 26 e8 98 bd ec 3e 2e be a0 53 79 3d
       -0.087796934 -0.07466154 -0.1701619 0.060870767
0003e0 dd 7d 9d bd 79 76 93 3d 6c 85 a6 3b 95 82 21 bd
       -0.07690022 0.07200331 0.005081823 -0.039431173
0003f0 ed 37 a5 3d 66 76 0c bc 92 27 23 bd a4 12 b3 bd
       0.080673076 -0.00857315 -0.03983266 -0.0874379

fc1.bias f4 [256]
000000 4d bc 83 be ca b3 a7 be 31 65 36 3d bb 52 9f be
       -0.257296 -0.32754356 0.044530097 -0.31117806
000010 cc 0e 62 bd 8e de d9 be 10 83 02 be 5d cd b8 be
       -0.055189893 -0.42552608 -0.12745309 -0.3609418
000020 5d 55 f2 bd 97 8a fe be 99 e1 be be 40 e2 bc be
       -0.11832688 -0.4971511 -0.37281492 -0.36891365
000030 78 d3 2c 3e 32 34 8e be b0 aa 5c 3e 9d bb 77 bd
       0.16877544 -0.27774197 0.21549487 -0.060481656
000040 c4 58 d9 3d a7 51 ab bd f6 98 af be 6c d4 f0 3e
       0.10612634 -0.08365183 -0.34296387 0.47037065
000050 85 57 43 be 0b 5e ce be d3 74 91 3e 3e d1 96 bd
       -0.19076355 -0.40306124 0.28409442 -0.073641285
000060 f0 78 d3 bd c3 45 48 3e 11 16 5f be b5 44 9b be
       -0.10325801 0.19557862 -0.21785761 -0.30325857
000070 ea 72 cb bd 10 8d 57 be b8 28 8d bd 41 fe 84 be
       -0.099340275 -0.21049905 -0.06892532 -0.2597523
000080 f9 fb 50 be 15 a5 a7 3e 4d 36 77 be 5a 02 fa bd
       -0.2040862 0.32743135 -0.24141808 -0.1220748
000090 5b f7 a7 bd 7e a9 8e 3d 9f c5 80 3e 8a e4 a3 3e
       -0.08201476 0.06965922 0.25150773 0.320103
0000a0 b1 fb 12 be cc 42 0f be 35 0c 61 be ed 03 8b be
       -0.14353825 -0.13990325 -0.21977313 -0.27151433
0000b0 19 53 35 3d 32 36 d0 be a3 65 85 be 54 7c f0 bd
       0.0442687 -0.40666348 -0.26054105 -0.11742464
0000c0 7a 38 4c be 72 ab 4a be ed 38 a0 be 17 ab 78 be
       -0.19943419 -0.19791964 -0.3129343 -0.24284016
0000d0 9a 62 72 be 0e f8 14 be 6d 13 a4 be 89 8b 11 be
       -0.23670426 -0.1454775 -0.3204607 -0.14213385
0000e0 4b e9 13 be da 23 08 be d1 bb 0b 3d e8 db 97 3e
       -0.14444463 -0.13294926 0.034114663 0.29659963
0000f0 5d 5c c3 be 4f e0 82 be f4 50 03 be 7f e9 b6 3e
       -0.38156405 -0.2556176 -0.1282385 0.35725018
000100 4e d8 6a 3d 06 83 7b be e4 f6 23 3c c6 0d a4 be
       0.05733519 -0.245617 0.010007594 -0.32041758
000110 e9 30 a3 be 91 1e 63 be 19 16 ec be b1 46 54 be
       -0.31873253 -0.22179629 -0.4611061 -0.20730092
000120 3d e6 8a be 13 ba 6c 3c 29 62 97 bd d9 82 27 be
       -0.27128783 0.01444866 -0.073917694 -0.16358508
000130 e3 0f 9a be a3 ad 66 bd f5 3f 69 3e 4b c6 85 be
       -0.30090246 -0.056317937 0.22778304 -0.26127848
000140 cd 6b bf 3d 13 2c 3e 3d 8d fd 92 be 87 e8 86 bd
       0.09346733 0.04642875 -0.2870907 -0.0658732
000150 bd 6f cd bc 94 9e c4 bd 61 cd b4 3e 18 c3 16 3e
       -0.025077695 -0.09600559 0.35312942 0.1472286
000160 4e f6 ab 3d c7 2d b6 bd cf cd 65 be e2 d7 ce 3d
       0.08396588 -0.0889545 -0.22441791 0.1009977
000170 eb 97 9f 3c d8 fe 1b 3e a8 7d 77 be ad 90 7d 3b
       0.01948162 0.15233934 -0.24169028 0.003869097
000180 e6 2d 6e be 6f fb 68 bd 03 cb 0b 3e fd aa 3d be
       -0.23259696 -0.05688041 0.13651662 -0.18522258
000190 60 e9 22 3e bb 5c 2e 3e 56 2a 09 3d 13 41 7c 3e
       0.15909338 0.17027561 0.03348764 0.24634199
0001a0 dd 75 ff bd 41 17 28 be cc 6b d6 3c f6 b9 e3 bd
       -0.124736525 -0.1641512 0.026174448 -0.111194536
0001b0 1e c7 4e bd b4 03 01 3e ad e2 ca be f2 ce 8a be
       -0.05048286 0.12599069 -0.39626065 -0.27111012
0001c0 cf e1 eb bd 23 61 ee bd 4d b3 77 be c0 31 5e be
       -0.11517679 -0.11639621 -0.24189492 -0.21698666
0001d0 e4 78 16 3e 01 8e ab be 95 f0 f0 bb 18 ba 08 be
       0.14694554 -0.33506778 -0.0073528984 -0.13352239
0001e0 17 e9 a2 be d8 ac 8d be e9 94 54 be 4a e1 87 3d
       -0.31818458 -0.27670932 -0.2075993 0.06634767
0001f0 d8 b1 bb be ed e5 8d be 1a be 8f bd 9e a7 66 3c
       -0.36659122 -0.27714482 -0.07018681 0.014078049
000200 4a 9e f7 bd 80 c0 59 3e 6b 4a 0e 3f d8 d1 8a 3e
       -0.12090738 0.21264839 0.555823 0.27113223
000210 c0 e6 c4 be 68 1f 8b be 95 16 8d be 33 ec 2f be
       -0.38457298 -0.271724 -0.2755629 -0.17179947
000220 33 3c 70 be 00 b5 7e 3d 21 65 32 bd c1 64 24 3e
       -0.23460464 0.062184334 -0.043553475 0.1605406
000230 4f f9 2e be ee 83 de be ba 07 00 be 0e b8 87 bb
       -0.17087291 -0.4346003 -0.12502947 -0.004141814
000240 59 de 2e 3e 8b 5f ec bc a5 0a 3c 3e ab 9b 06 be
       0.17077006 -0.028854152 0.18363436 -0.1314532
000250 52 06 2c be a2 40 62 be b6 e0 74 be 2d fd 55 be
       -0.16799286 -0.22094968 -0.23913845 -0.2089736
000260 98 16 cc be ee a8 f2 bd 61 25 b4 be bd 04 ae be
       -0.39860988 -0.11848627 -0.35184768 -0.3398799
000270 0d c6 08 bf 04 53 79 be 8d 18 ad bc 8d f9 98 be
       -0.534272 -0.24348074 -0.02112987 -0.29877892
000280 ad 32 62 3e 56 91 0b be 23 7b 03 3e 35 df 5c be
       0.22089644 -0.1362966 0.12839942 -0.21569522
000290 50 84 9e be e0 48 be be 1c 34 1a ba 75 e6 01 3d
       -0.3096032 -0.37164974 -0.00058823987 0.03171392
0002a0 e5 1a a5 be 0d 3c e3 3d 41 8e f9 bb 85 23 ef be
       -0.3224708 0.11095438 -0.007615835 -0.46706787
0002b0 d4 6e d7 be 20 0f 82 3e ce 16 42 be 47 f2 4b 3e
       -0.42076743 0.25402164 -0.18954012 0.1991664
0002c0 13 a7 59 be 64 a4 df 3d b5 66 9a be 24 6f c7 3d
       -0.2125514 0.10920027 -0.30156484 0.09737995
0002d0 24 70 49 be 93 15 2d 3d 94 9f 58 be 87 0f 2c be
       -0.19671685 0.042256903 -0.21154624 -0.16802798
0002e0 2e 95 40 3d b7 e9 9e be d8 62 07 bd 36 ef 0e 3e
       0.04701727 -0.31037685 -0.03305325 0.13958439
0002f0 19 00 7e 3e a1 01 3c be 73 20 37 3e 72 13 90 be
       0.24804725 -0.18359996 0.17883472 -0.28139836
000300 41 b0 5a 3b e6 13 77 be 4b 4f 8e be cc fa 41 3d
       0.0033369216 -0.24128684 -0.2779487 0.04735832
000310 3a 39 3c be bb 51 32 3d cb ff ec 3d aa 6a 2f 3e
       -0.18381205 0.043534975 0.11572226 0.17130533
000320 5c 38 76 3e 6c 5c 5c be d0 b6 e0 bd 04 01 f5 bc
       0.24044937 -0.21519631 -0.10972369 -0.02990771
000330 17 39 bd be ae 37 8d 3c 40 c1 17 bc 55 18 20 be
       -0.3695762 0.017238464 -0.009262383 -0.15634282
000340 99 12 9e be 49 f7 43 be 5b 4f 69 be 6e 62 02 be
       -0.30873564 -0.191373 -0.22784178 -0.1273286
000350 53 03 3a be 5b c7 01 be a3 b5 50 be 81 03 e7 bd
       -0.1816533 -0.12673704 -0.20381789 -0.11279965
000360 f3 c2 e0 3d c8 70 58 be bc 6c c0 be 3a 5f 92 3d
       0.109746836 -0.21136773 -0.37582958 0.07147069
000370 ea a7 ac be a8 27 25 3d 4e da 95 be df ee 46 3e
       -0.33721858 0.040321022 -0.29268116 0.1942706
000380 68 2b 0b be fe 70 15 be 39 f4 9a be 54 62 47 3c
       -0.13590777 -0.14593884 -0.30264452 0.012169439
000390 23 0c 9d be b4 4f 7d bd 2a ee 97 3e cd c1 b5 be
       -0.30673322 -0.06184359 0.29673892 -0.3549942
0003a0 f1 17 9d be b2 c0 e9 3d a8 9d 93 be 8f 27 e1 be
       -0.30682328 0.11413707 -0.2883122 -0.43975493
0003b0 98 4b bc 3d 16 57 8f be eb cf 1e be 8e 15 b5 be
       0.09194106 -0.2799613 -0.15509002 -0.35368007
0003c0 10 74 6a 3c 82 d8 13 be 37 9e 1c 3e a7 d0 f0 bd
       0.014309898 -0.1443806 0.15294729 -0.11758547
0003d0 d4 88 e8 bd ed 19 b9 be c0 cb 70 3e af 6b 2c 3c
       -0.11354223 -0.36152592 0.23515224 0.010523721
0003e0 ff 87 78 bd 89 6c d2 be 71 65 6d be 7b 55 34 be
       -0.06067657 -0.4109843 -0.23183228 -0.17610733
0003f0 f1 26 de bd a2 1b 6f bc 2d 8d 72 be a3 16 8c be
       -0.10847271 -0.0145939905 -0.23686667 -0.2736102

fc2.weight f4 [256, 256]
000000 2c 4d 9d 3d fc fe 70 bd 72 3d 84 ba f3 31 0a bc
       0.07680735 -0.058836922 -0.0010089113 -0.00843476
000010 b1 fe 05 3d d5 47 27 3c ad 1e 33 bc f0 8b b0 3c
       0.032713596 0.010209997 -0.010932607 0.021551102
000020 ae b5 d9 bc 6a 04 c2 bc 95 35 0e bd 76 9c bd bd
       -0.02657589 -0.023683745 -0.03471907 -0.09258358
000030 98 e8 92 3c a9 12 a3 bd 86 ba 83 bd 42 f6 2b bd
       0.017933175 -0.079625435 -0.06432061 -0.041982897
000040 9c 45 59 bb 4a 21 43 bd 84 19 a2 3c bb 45 26 3d
       -0.0033153063 -0.04763917 0.019787557 0.040593844
000050 e6 d1 1f bc 0b 18 c5 bd 70 3c 72 3c f9 38 8f 3c
       -0.0097546335 -0.096237265 0.014784917 0.017483221
000060 c8 cc 98 bd 73 d0 28 bd 62 f0 6f b9 d9 b7 df bc
       -0.07460934 -0.041214418 -0.00022882366 -0.027309345
000070 94 95 0e 3d 70 fb 83 3c d2 47 19 3d b3 cb 67 3b
       0.034810618 0.016111106 0.03742201 0.0035369217
000080 92 61 4f 3d 1f 00 62 bb 6e e1 bd bc 30 80 a7 3c
       0.05063016 -0.0034484935 -0.023178782 0.020446867
000090 29 e8 b2 bc 1b d8 8d 3b 93 51 87 bd 7c c6 d0 3c
       -0.021839218 0.0043287403 -0.06607356 0.02548527
0000a0 b5 9d 6e bb 42 78 05 3c a1 3d 8a bd d1 6c 6e bc
       -0.0036409919 0.0081463475 -0.06750036 -0.014552311
0000b0 5a 34 1f bd 18 98 2c 3d 17 8e 89 bd 0d a9 88 bd
       -0.038868286 0.042137235 -0.067165546 -0.06672869
0000c0 c3 15 60 bd 5f 02 86 bd 90 d7 16 3c 89 ab 73 bd
       -0.054708254 -0.06543421 0.009206668 -0.05948976
0000d0 45 86 9c 3c 60 3e 8b bc 9b 0f 3e bd 8b b1 48 bd
       0.019106993 -0.016997516 -0.0464016 -0.048997443
0000e0 2b d8 c7 bb c5 7e 37 bd 51 9e b1 bd b9 63 a0 bd
       -0.0060987673 -0.04479863 -0.086727746 -0.078315206
0000f0 b6 27 66 b9 4f de 81 bd 29 8e 25 3d d3 6e 04 3c
       -0.00021949303 -0.0634123 0.040418778 0.008083063
000100 20 51 56 3d cb 41 09 3d 31 0c 4b bd 5e 7d 43 bc
       0.05232346 0.03351001 -0.049572174 -0.011931745
000110 87 54 15 3d e3 0e 84 bc a3 a2 ac bd e3 90 2f bc
       0.036457565 -0.01612038 -0.08429458 -0.010715696
000120 c1 d7 e6 3c 1d 23 9b bd cf 8b 7b bc f4 b2 b2 bd
       0.028179051 -0.07575057 -0.015353157 -0.08725539
000130 f8 b4 e4 3c 93 37 c0 3b 93 77 77 3c 99 3d f5 bb
       0.027918324 0.005866 0.015104192 -0.0074841497
000140 14 07 e5 bb 18 66 0a 3d 0d 55 41 bd 2f 3f b3 bd
       -0.006989369 0.03378877 -0.04720025 -0.08752286
000150 63 b8 99 bd f2 67 c4 bb ed 50 b8 bd 39 2e b6 bd
       -0.07505872 -0.0059938366 -0.0899981 -0.08895535
000160 6c f4 7c bd 59 a7 73 bd a7 09 00 bc c9 4c ad bd
       -0.061756536 -0.059485767 -0.007814801 -0.08461911
000170 79 65 33 bd 7f cd 5e 3c 69 21 ed bc f6 6a 31 bd
       -0.043797944 0.013598799 -0.028946595 -0.043314897
000180 1b 60 31 3d 38 11 86 bd b1 f3 b6 bd 3c 26 3a bc
       0.043304544 -0.06546253 -0.08933199 -0.011361655
000190 0c ff d5 bb 10 3f d2 bd 52 70 d6 3c 9a e1 05 bd
       -0.006530648 -0.102659345 0.026176605 -0.032685854
0001a0 dd 85 11 bd 18 01 f0 3c e2 d9 02 bc 09 b0 8f bc
       -0.035528053 0.029297397 -0.007986518 -0.017539995
0001b0 49 1f b7 bd 4e e3 ca bd 49 8a ee 3b a7 ff 49 bc
       -0.08941514 -0.09906636 0.0072796685 -0.012329019
0001c0 12 98 7f 3c d5 13 96 bc 3a 18 77 bd 2b 6d 5b 3a
       0.015600221 -0.018320004 -0.06032584 0.00083704543
0001d0 38 16 95 bd 47 c6 3a bd 0f 0e d0 bc 3b f4 4e bd
       -0.072796285 -0.04559925 -0.025397329 -0.050525885
0001e0 13 fb 68 bd 3e 26 a5 bc dc 7e 1d 3d 91 a8 d9 bd
       -0.056880068 -0.020159837 0.03845106 -0.106278546
0001f0 e0 ed 41 3d e0 a8 c8 3c 4c bd 21 bd 76 69 9a bd
       0.047345996 0.024494588 -0.03948717 -0.07539646
000200 38 b9 77 bd c3 5d ee bc 12 05 5c bd 7f 0c 0f bd
       -0.060479373 -0.029097443 -0.053715773 -0.034924027
000210 e7 7b 18 bd 06 ea 48 3d 60 0e 24 3d 4e bd 7d bd
       -0.037227537 0.049051307 0.04005277 -0.061948113
000220 1a 72 01 bd d1 8b 9d 3c d9 2a 15 bd a1 21 86 bd
       -0.031602956 0.019231709 -0.036417816 -0.06549383
000230 13 ff 0b bd d6 d2 11 3d 24 62 6c 3b 85 59 c8 bd
       -0.034178805 0.03560146 0.0036069239 -0.097826995
000240 e1 d5 62 bd 07 ac 64 bb 1c a5 a7 bc b2 f7 f8 3b
       -0.055379752 -0.0034892575 -0.020464472 0.007597887
000250 3b b3 5e 3c b6 45 81 bc 97 d3 a8 bc 95 fc 44 bd
       0.013592537 -0.015780311 -0.020608706 -0.048092443
000260 89 21 72 bd 7e d1 8c bd 41 c1 72 bd fa 78 81 bc
       -0.059114013 -0.06875895 -0.059266333 -0.015804756
000270 9c af 6b bd 08 e5 9d bb 77 af f2 bc e6 b4 0f 3d
       -0.05754052 -0.0048185624 -0.029624684 0.035084628
000280 27 33 bc bc 83 bd c9 39 f9 b2 02 bb 0d d4 03 bd
       -0.02297361 0.00038478905 -0.0019943102 -0.03218465
000290 ff 31 1f bd b5 de 8c bd 27 b3 cc bd 63 78 1c bd
       -0.03886604 -0.068784155 -0.09995108 -0.038200747
0002a0 af ae 34 bd d1 fd a1 bc e9 e2 ae bb a0 af f8 3c
       -0.044111904 -0.01977435 -0.0053371084 0.030357182
0002b0 a4 7d 9e bc ed 55 18 bd 05 bd 05 3d b8 1e f8 bc
       -0.01934702 -0.03719132 0.032650966 -0.030288085
0002c0 7a d1 af 3c 05 a7 85 bd a4 f3 7a bd 5d 10 20 3c
       0.02146219 -0.06525997 -0.06126751 0.009769526
0002d0 cf 84 f8 3c 2d 39 26 bd cc c3 9c bc 0c a1 c1 bd
       0.030336766 -0.04058187 -0.019136332 -0.094545454
0002e0 c7 58 2f bd 91 78 89 bd 9c 89 7b 3c 8d 54 9d bd
       -0.042809274 -0.06712449 0.015352633 -0.076821424
0002f0 f2 74 4e bd f0 f6 27 3d 6a de 56 bd 23 f9 40 bd
       -0.050404496 0.041006982 -0.052458204 -0.047112595
000300 b3 00 93 3c 6f 96 05 bd 8b 3b 1a 3c e0 03 3f 3d
       0.01794467 -0.032614168 0.00941361 0.046634555
000310 f7 1a f7 bc 1b d6 ad bd 1e bc ec 3c e2 61 17 bc
       -0.030164225 -0.08488103 0.028898295 -0.009239646
000320 06 31 a1 bd 05 70 8b bd f3 3f cc bc f8 f4 70 bb
       -0.078706786 -0.068084754 -0.024932837 -0.0036767107
000330 6f f5 78 3c dd 5a 17 bd 48 1b a2 3c 6d 23 0d 3d
       0.015195235 -0.03695189 0.0197884 0.034457613
000340 36 28 ab 39 a6 19 af bc 73 72 d4 3c ca 06 79 3a
       0.0003264562 -0.021374535 0.02593348 0.0009499608
000350 6d d3 7d bb 13 c3 3e 3d 96 ad 0a 3d 8d ed d1 3c
       -0.0038730756 0.046572756 0.03385695 0.025625968
000360 04 00 f8 bc 58 a8 2a bd 04 2c 31 bd a3 ab 87 bd
       -0.030273445 -0.04166445 -0.043254867 -0.06624534
000370 81 56 c0 ba 71 01 e7 3b ad 7c 01 bb 0a 7d 84 bc
       -0.0014674218 0.0070497324 -0.001975815 -0.016172905
000380 64 6b 01 3c d8 62 7b bd df c5 9e bc 6b 34 53 bb
       0.007899139 -0.06137356 -0.019381462 -0.0032227288
000390 7a 08 3e bd 20 ec 7b bc bd 72 d9 3c 31 13 fe 3b
       -0.046394803 -0.015376121 0.02654397 0.0077537526
0003a0 92 f7 f3 3c f9 8c 88 bd bc 1c 28 bb db e2 92 bd
       0.029781137 -0.066675134 -0.0025651893 -0.071721755
0003b0 d0 41 49 bd 16 91 b8 bd 88 46 d5 3c 8d d5 87 bd
       -0.04913503 -0.09012048 0.026034608 -0.066325285
0003c0 d4 31 a2 3c d9 08 3d bd ef 23 ad ba 93 42 2f bd
       0.01979915 -0.046151016 -0.0013209562 -0.0427881
0003d0 cf 67 69 bd 94 ec 82 bd 5a fd 51 3c 6f fb 00 bd
       -0.056983765 -0.0639278 0.012816751 -0.031489786
0003e0 9f 66 02 3b 93 76 ef bc f2 e6 95 bc 6a d0 7c bd
       0.0019897593 -0.029231345 -0.0182986 -0.061722197
0003f0 b7 63 ae 3c 6d 68 bd 3c f4 a8 6d bd 5d ae 31 bb
       0.021287782 0.023121083 -0.058022454 -0.0027111985

fc2.bias f4 [256]
000000 d5 47 7d bb 9f b4 93 bd e7 fa b3 3d bf ab 74 bd
       -0.0038647552 -0.07212185 0.0878809 -0.059734102
000010 45 6a 03 bd 57 6c bf bd 95 4e 80 bd 28 0f 63 bc
       -0.03208377 -0.09346836 -0.06264988 -0.013858594
000020 84 43 e6 3c 16 94 81 3a 7a 53 60 3c bd 84 06 3e
       0.028108366 0.0009886052 0.013691777 0.13136573
000030 92 34 ab bc d9 02 9f bd c4 5b 33 bd 05 3f 23 bd
       -0.02089909 -0.07764215 -0.043788686 -0.039855022
000040 4e ed e0 bd 9e b5 bd bb 33 00 8c 3d 4c 30 a3 3e
       -0.10982762 -0.0057894727 0.068359755 0.31872785
000050 69 5c d0 bc b0 0c 02 3e 3b ad 0a 3d 5b 5b e5 3e
       -0.02543469 0.12700152 0.03385661 0.4479626
000060 81 a0 27 3d d8 5f 12 bd 54 4f 41 bd c1 bc fe bb
       0.040924553 -0.035735935 -0.047194794 -0.007773966
000070 a2 e5 62 bd c3 02 a2 bd 14 5a f7 3d 68 5b f4 bc
       -0.055394776 -0.07910683 0.12077728 -0.029828742
000080 8c 45 4a bb 8a 05 76 bd f6 4f 19 bd 7e c2 21 bc
       -0.0030864207 -0.060063876 -0.037429772 -0.009873031
000090 11 9d 31 3e 9f 42 5f bc 51 6c 92 3d 01 3f 38 bd
       0.17345072 -0.013626724 0.07149566 -0.04498196
0000a0 85 29 b9 bc fb 73 23 bd 4e 1c 49 3e 11 c7 ad 3d
       -0.022602806 -0.03990553 0.19639704 0.084852345
0000b0 45 e3 8c 3c 3f 0d 63 bd 62 d5 9a 3b a6 de c8 bc
       0.017198214 -0.055432554 0.0047251442 -0.02452023
0000c0 47 d7 5c 3e c6 85 8c 3d e8 28 c1 3d 12 31 85 bc
       0.21566497 0.06861453 0.094316304 -0.01625875
0000d0 3b 94 ba bc 65 da 23 3c 85 54 d7 bd 4f 31 c0 bd
       -0.02277576 0.0100008 -0.10514168 -0.09384405
0000e0 30 7c a8 bc 31 50 5c 3d 7f f9 97 3e d8 f4 f2 3c
       -0.02056703 0.053787414 0.29682538 0.029657766
0000f0 01 bc d2 3c a0 dd 18 bc 43 bf cd 3c b6 45 c7 bd
       0.025724413 -0.009330183 0.025115615 -0.09730093
000100 ad 85 ae 3a 8e 2f b4 bc ee 8c 82 39 45 bf ee 3d
       0.0013314985 -0.021995332 0.00024900533 0.116575755
000110 1d b2 ce bd 2d 82 03 3d ad 3f e8 bc 27 56 5a bc
       -0.10092566 0.032106567 -0.028350675 -0.013326204
000120 5e 1b 0b 3e 4d c6 9d 3c 41 19 6e 3c 9e 7f c3 bc
       0.13584659 0.019259596 0.014532388 -0.023864564
000130 74 5d 25 bd ad e1 0b bc f7 27 ac bd 98 76 9c bd
       -0.040372327 -0.008537692 -0.0840606 -0.076398075
000140 96 06 91 bc b7 d1 8b bd 27 24 43 bd 15 77 85 3d
       -0.017703336 -0.06827109 -0.0476419 0.06516854
000150 fc 67 a2 bc f3 87 1b bd 67 2c 58 3c 37 93 ac 3c
       -0.019824974 -0.03797145 0.01319418 0.021066291
000160 8c e5 90 39 f9 46 60 bd 63 e2 12 bd d3 3c 32 bd
       0.00027636846 -0.054755185 -0.03586043 -0.043515038
000170 86 44 8a bc 44 f1 1e bd 87 21 b8 bd af 34 82 3c
       -0.016878378 -0.038804308 -0.0899077 0.015894262
000180 20 1b 2b bd 8c d5 06 bd dd 4d f8 3d 7b 93 92 bd
       -0.041773915 -0.032918498 0.12124226 -0.07157036
000190 1f f6 71 bd ad 96 d3 3d 1f 03 8e 3c 43 c1 7a bd
       -0.05907261 0.103314735 0.017335473 -0.061219465
0001a0 b1 c2 ce bd 09 71 a8 bd c3 ed 67 3c 84 be bf bd
       -0.10095728 -0.08224685 0.014155808 -0.0936251
0001b0 e7 08 ee bd 06 23 49 bd 69 9e 02 3d 18 6f 11 be
       -0.11622792 -0.049105667 0.031889353 -0.14202535
0001c0 22 ef 3d 3e bc b8 fb 3d a1 e2 15 bd b9 92 c2 bc
       0.18548253 0.12291095 -0.036593083 -0.023751603
0001d0 c6 f9 fc bc c0 be 8f bd be 01 98 3c 21 96 98 bd
       -0.03088082 -0.070188046 0.018555518 -0.0745051
0001e0 ab 2f 37 bd 89 97 55 bd c0 8e ce bd fa d5 a0 3e
       -0.044723194 -0.05214647 -0.10085821 0.3141325
0001f0 90 7d 94 bd 84 64 b0 3d c4 bd 06 bc 6e 41 9b bd
       -0.07250512 0.08612922 -0.008223955 -0.07580839
000200 7f 03 9d bd 1d ec 61 bd fe bf 94 bd 16 6b 12 be
       -0.076666825 -0.055156816 -0.07263182 -0.14298663
000210 2c ab d2 3e b4 a2 19 bd a3 f8 90 3e 36 33 c0 bc
       0.4114622 -0.03750868 0.28314695 -0.02346192
000220 8b 29 c7 3c 29 f4 0d bd 72 bd 08 bc cc d1 96 3c
       0.024311801 -0.034656677 -0.0083459485 0.018410586
000230 fd 73 f4 bd bd 5a eb 3c 35 b8 08 3e 40 8b 6b bd
       -0.119361855 0.02872979 0.1335152 -0.057505846
000240 ed 62 55 3c 6d 3d d7 bd 26 0b c4 3c 8a 8e df bc
       0.013024074 -0.10509763 0.023931097 -0.027289648
000250 20 ab 16 3d 5d 60 5c bd 2a 64 73 3c e8 9f d0 bd
       0.03678429 -0.053802837 0.014855424 -0.1018675
000260 24 3d 1e bb e8 52 1d 3d 6a b8 fb bc 77 2a 5a 3e
       -0.002414533 0.038409144 -0.030727584 0.21305262
000270 7f 82 c2 b9 58 48 a0 bc 65 25 66 3e 3b 4e 09 3e
       -0.0003709979 -0.019565746 0.22475202 0.13408749
000280 25 42 2f 3c a3 90 c7 bc 72 5c d8 bc 27 ee 39 bd
       0.010696922 -0.02436096 -0.026411269 -0.045393135
000290 6d 1a 14 bd db 22 10 bd 7d d5 8f bd 87 a1 f1 3c
       -0.036158014 -0.03518949 -0.070231415 0.029495968
0002a0 57 32 af 3d 12 eb c9 3d 86 fc 10 be 64 6d 71 3e
       0.085545234 0.09859289 -0.1415883 0.23576885
0002b0 e6 f0 9f 3d 14 d6 87 bc 58 74 70 bd 36 4c 9c 3d
       0.078096196 -0.016581573 -0.058704704 0.076317236
0002c0 93 ac 59 bc 06 cf 23 bc 12 4a 17 bd 8d 06 06 be
       -0.013285774 -0.009998089 -0.036935873 -0.13088436
0002d0 6e d4 0a 3c 1b 3c 1b 3e a9 c9 17 3d ad ad f1 bb
       0.008473499 0.15159647 0.037057552 -0.00737544
0002e0 24 55 78 bc ca c5 06 bc 68 aa fb 3c d4 56 0c bd
       -0.015157018 -0.0082258675 0.030720904 -0.034262493
0002f0 da 28 93 3a 71 93 64 3e e4 e4 d7 3c de 17 84 3c
       0.0011227385 0.2232187 0.02635426 0.016124662
000300 4a f5 1b 3e df 01 ed 3c 68 9b 9f 3d 9d 64 1f 3e
       0.15230289 0.028931556 0.07793313 0.15565725
000310 c6 58 b6 bc d4 ea ee 3d 82 94 dc 3e 85 f1 bb bd
       -0.022259127 0.11665884 0.43082052 -0.091769256
000320 2a 34 88 bd 5a c6 1a 3d ff 3e 42 bd 90 54 01 3e
       -0.066505745 0.03778682 -0.04742336 0.12629914
000330 12 bf a4 bd bf 26 00 bd 57 79 15 bd de e4 81 bd
       -0.08044256 -0.03128695 -0.03649267 -0.06342481
000340 12 11 b2 bc 9b 4c 2a 3b ba 39 9d bd 4e 91 97 bd
       -0.021736655 0.0025985602 -0.07677026 -0.074007615
000350 a9 69 0e bb b1 8c c5 bc dd 21 b8 bc cd fb e4 bb
       -0.0021730459 -0.024114938 -0.022477085 -0.006988025
000360 62 02 dc bb e7 b4 8d bd ea c0 a6 3c 46 a4 65 bd
       -0.0067141512 -0.0691927 0.02035566 -0.056064866
000370 89 8f 53 bd 84 aa df 3e cf c2 6d bd 24 ee a2 3e
       -0.051650558 0.4368478 -0.058047112 0.31822312
000380 39 61 80 bd 85 05 65 3c 9e 74 52 bd f6 8b c9 bc
       -0.06268544 0.013978367 -0.051380746 -0.024602871
000390 65 24 4f bd 69 31 17 3b 6a 7e 8c bd ad bb ae bd
       -0.050571818 0.0023070222 -0.06860049 -0.0853189
0003a0 e1 87 f5 bc 36 21 7e bd f9 e2 fc 3d ae a9 a7 bd
       -0.029972019 -0.06204339 0.12347979 -0.08186661
0003b0 7b 9f 16 3e f3 df 60 bd 79 37 c4 3c 9c 5b 87 bd
       0.14709274 -0.054901075 0.023952233 -0.0660927
0003c0 df 45 60 3d 3f 06 d6 3d 75 dd 94 3c aa b6 ca 3c
       0.054754134 0.1045041 0.018172005 0.024745304
0003d0 69 94 9c bc 2b 80 59 bd df e2 5b 3e b0 88 51 bd
       -0.019113736 -0.053100746 0.21473263 -0.051155746
0003e0 8c ee 5d bd 79 d9 8f bc 7f 00 6e 3e b6 7c e7 3c
       -0.054182574 -0.017559754 0.23242377 0.028257709
0003f0 85 47 05 bd 83 06 16 3e 9b fc 30 3e 3b 42 7a 3e
       -0.03253891 0.14650922 0.17283861 0.24439327

fc_mu.weight f4 [32, 256]
000000 d2 a9 db bc d0 d7 18 3c 61 23 e1 3c 68 72 ec 3c
       -0.026814375 0.009328797 0.02748269 0.028863147
000010 77 a2 4b bd e8 c4 36 bc 7c d4 4e 3d 8c c4 7e bb
       -0.049715485 -0.011155345 0.05049561 -0.0038874475
000020 12 77 2f 3d 5a dd d8 3b 2c 0a e3 3c 5a 72 cb bc
       0.042838164 0.006618184 0.027714811 -0.0248348
000030 32 a1 9e bd 10 19 aa 3c 99 54 24 bc fe e7 3d bd
       -0.07745589 0.020763904 -0.010029935 -0.046363823
000040 9d 7c 89 bd ed 73 b1 3d e7 d8 75 3d b7 c9 6c 3c
       -0.06713221 0.08664689 0.060021307 0.014452389
000050 f9 b1 5c bb d5 39 c1 3c cc 7c d8 3b bd 6d 75 bd
       -0.0033675416 0.023587147 0.006606674 -0.059919108
000060 3f 5b bd bc 7f a3 85 3d 69 a2 a4 3d 70 9e 00 3d
       -0.023114799 0.06525325 0.0803879 0.031401098
000070 9d 03 43 3d c3 4f 01 bd 89 59 c3 bc 68 08 37 bd
       0.047610868 -0.031570207 -0.023846405 -0.04468575
000080 5e 62 3f bc 46 a2 e0 bc c2 8f ac 3c 4b db 15 be
       -0.011681167 -0.027421128 0.021064643 -0.14634435
000090 48 f9 0c bc e3 3e 4e bc ea 74 ad bc 22 f6 2a bd
       -0.008604355 -0.012588236 -0.021173913 -0.041738637
0000a0 49 2f 54 3d 8e 93 1a bd db d8 d4 bc cf 8a 85 3d
       0.051802907 -0.037738375 -0.025982311 0.06520616
0000b0 94 47 aa 3d b1 3f 21 bd 7d b3 c3 bb 13 f8 60 bd
       0.08314434 -0.03936738 -0.0059723244 -0.054924082
0000c0 63 d2 a2 3d cf 4d 1c bd 60 ab 15 bd ff 6a 8e bd
       0.07950284 -0.03816014 -0.03654039 -0.06954002
0000d0 55 97 66 3d 71 f0 3e bd 13 19 13 bc 3d 96 42 bd
       0.056296665 -0.04661602 -0.008978146 -0.04750656
0000e0 6d 57 5e 3b 55 26 2b 3d f6 9d 9a bc 88 68 3e 3d
       0.0033926622 0.041784603 -0.01887415 0.046486408
0000f0 96 09 3f 3d b7 86 03 bd e4 e9 3c 3c 17 4a 9f 3b
       0.04664 -0.032110896 0.011530373 0.004861127
000100 f0 e9 8e bc 2c 6a 29 3c 58 4b 45 bc 5b 53 4a 3d
       -0.017445534 0.010340255 -0.012041889 0.0493959
000110 4d c0 23 bd 3a 9f 5c bc 63 ef b5 3c b5 23 2a 3d
       -0.039978314 -0.013465697 0.022208875 0.04153796
000120 1a f9 74 3c 88 0a ab bc 95 5a 07 3d b6 b9 3f 3d
       0.014951969 -0.020879045 0.03304537 0.046807967
000130 1e 7f 0a 3c 53 42 2a 3d 1e 87 9e bd e9 24 33 3d
       0.008453159 0.041567158 -0.07740615 0.043736372
000140 ab cf 73 b9 e3 a3 74 bc c1 a7 16 bd e9 62 96 3c
       -0.00023251648 -0.014931652 -0.036781076 0.01835771
000150 dd 1c 2c 3d 8a 88 2c bc fa 65 09 bd a3 cf 24 bc
       0.042019714 -0.0105306 -0.033544518 -0.01005927
000160 94 0e 10 3b 3c a1 3f 3c ac 5f b4 3d 22 19 22 bd
       0.0021981345 0.011696156 0.088073105 -0.03957475
000170 9b fd 71 3b 9d 6b c0 3d 14 15 03 3d ac c4 a7 bc
       0.0036924842 0.093955256 0.032002524 -0.020479523
000180 f0 16 01 bd a2 19 8b bc c5 eb a6 3d ba 8c 52 3c
       -0.031516016 -0.016979996 0.08150438 0.012850935
000190 4b 78 cd 3c df 62 4d bd 30 52 d7 bb f3 7a 5e bd
       0.025081774 -0.05014312 -0.006571077 -0.054316472
0001a0 0e 56 c7 bc ff 11 62 bd 09 d3 d5 bc fc 06 91 bc
       -0.024333026 -0.055192944 -0.026101606 -0.017703526
0001b0 c5 08 54 bd 23 16 85 bc ab 26 e7 bc fc 05 46 bd
       -0.051766176 -0.016245907 -0.02821668 -0.04834555
0001c0 dd 04 ae 3c b4 8f db bc 2b b5 39 bd aa 74 81 3d
       0.021242553 -0.026801921 -0.04533879 0.0632108
0001d0 e5 a4 84 be af 8e f5 3c 32 a9 97 3d 89 36 56 3d
       -0.25907055 0.029975263 0.07405318 0.052298103
0001e0 ed 29 38 bd f5 1c ed 3b cb 51 65 3d 38 24 09 3d
       -0.04496186 0.007236118 0.055986207 0.033481807
0001f0 a3 38 b1 bc 4d 74 34 3c 76 21 ff bc ff b2 a8 bc
       -0.021633452 0.011014056 -0.031143885 -0.020593164
000200 52 82 10 3c d1 89 22 3d a8 81 68 bd ff d2 90 3c
       0.008820133 0.039682213 -0.056764275 0.017678736
000210 62 59 a9 bd bc 36 a2 bc 59 a9 e8 bb db f3 a8 3c
       -0.082690015 -0.01980149 -0.007100266 0.020624092
000220 7b 5a 27 bd 96 ee 8b 3d 2f 1d 49 bd 3a c0 09 bd
       -0.040857773 0.06832616 -0.049100097 -0.033630587
000230 ee 68 be 3d 25 8d 49 3d 22 08 3b 3d 91 40 57 3b
       0.092973575 0.04920687 0.045662053 0.003284488
000240 89 81 e0 3c 1a 70 b9 bd 0f 29 42 bd 30 34 04 bd
       0.027405517 -0.09054585 -0.047402438 -0.032276332
000250 ad 4f 84 3b 81 e3 46 bc 38 4c b4 3c ae 79 e3 bb
       0.0040378184 -0.012139202 0.022009 -0.0069419956
000260 44 ea b7 39 e1 54 6d 3d f2 95 74 bc 38 a4 08 be
       0.00035079021 0.057942275 -0.014928328 -0.13343894
000270 10 95 c5 bc 07 d6 cf 3d 9d d6 90 3b 62 39 ad 3c
       -0.02411893 0.10148244 0.004420115 0.021145526
000280 c5 2c 29 bc 39 06 16 3d 3d bc 77 3d 96 ad 53 3c
       -0.010325615 0.03662703 0.060482252 0.012919804
000290 e5 0a 93 3d 04 39 97 bc 65 6e 47 bd 7e dc 16 bd
       0.07179812 -0.018459804 -0.048689265 -0.03683137
0002a0 13 a5 e6 bb 66 bc 70 3d 7b 97 01 bc 02 01 74 bd
       -0.0070387213 0.05877342 -0.007909651 -0.059571274
0002b0 ff 96 5d bc bd 5c 6f bd d8 4f a6 3c 52 d4 d9 3c
       -0.01352477 -0.05843805 0.020301744 0.0265905
0002c0 9d 85 70 bc af 7d a6 3d 69 6e 59 bd 34 e7 41 bb
       -0.014680293 0.08129441 -0.05308381 -0.002958727
0002d0 4c 7a 35 3d 01 e4 a7 3d 3f 1e 3d bd 49 60 1b 3d
       0.044306085 0.08197785 -0.046171423 0.03793362
0002e0 bf 1c b5 3d 4f 9e 30 bc 57 22 fd bb 8d ec ce 3c
       0.088433735 -0.010779931 -0.007725041 0.02525928
0002f0 14 f9 38 bc db c5 81 3d 59 c4 4c bd 70 4b 0a 3d
       -0.011289854 0.06336566 -0.04999194 0.03376335
000300 14 74 5d bc ef 12 26 bd 7b 7c a6 bb 74 af ae 3d
       -0.013516445 -0.0405454 -0.005080757 0.08529559
000310 8f c8 ac 3d 9f 7d 40 bd fa e4 c3 3d 66 20 03 3c
       0.08436691 -0.0469948 0.09565158 0.00800333
000320 e2 08 10 3d 0f df 99 bc b2 7b f0 3c 32 2a cc 3c
       0.03516472 -0.01878312 0.029355858 0.024922464
000330 47 e1 17 3d a3 61 09 bd 0c 90 61 bd 53 a7 71 bd
       0.037080076 -0.03354038 -0.055069014 -0.058997463
000340 67 64 22 3d 8f ef 37 3d 30 b1 92 bc 4a 74 ce bc
       0.039646532 0.044906195 -0.017906755 -0.025201935
000350 9e 58 20 bc 28 3e 2f 3d 63 71 fb 3d 77 d5 d1 bc
       -0.009786753 0.042783886 0.12277486 -0.025614483
000360 9d 17 65 3c 83 61 71 bc 91 09 03 be f3 e2 0e 3e
       0.013982681 -0.014732721 -0.12796618 0.13953762
000370 1c 9f 8c 3c c0 a9 02 bd 9d 57 85 39 2c 72 e1 bb
       0.017165713 -0.031900167 0.00025433014 -0.0068800654
000380 d0 23 0e bc 39 e0 24 bd 69 6b 48 bd 2f ad 72 bd
       -0.008675531 -0.040252898 -0.04893056 -0.059247192
000390 63 0a f0 3d 47 25 1a bd e3 55 8f bd 81 54 0b bc
       0.11720731 -0.037633207 -0.069988035 -0.008504034
0003a0 b7 88 0f bd ec 61 89 3c 8a 72 33 3d aa 7d 04 bc
       -0.03504249 0.016770326 0.043810405 -0.008086601
0003b0 03 0f b8 3c 02 a3 ff bc 5b ca 4b bd ac ba 9d bb
       0.022468096 -0.031205658 -0.049753528 -0.004813513
0003c0 e8 6e ea 3c a2 79 bd bc 5a 76 de bc 99 89 03 bc
       0.028617337 -0.023129288 -0.027156044 -0.008028411
0003d0 ae 25 09 3d 1d 77 54 bd 90 fb ba bb db 67 ba bc
       0.0334832 -0.051871408 -0.005706258 -0.0227546
0003e0 c7 88 63 3c 24 e9 1b bc 3f 94 ce 3c 28 ae cc bc
       0.013887591 -0.009516034 0.025217174 -0.024985388
0003f0 36 1b 52 3d 62 ed 16 3d 7f d1 0f 3c c7 80 cb 3c
       0.05129548 0.03684748 0.008777975 0.02484168

fc_mu.bias f4 [32]
000000 e0 4d 3c 3c ca bc 4a 3c 2b ad e6 bc d0 cc 09 3d
       0.011493176 0.012374112 -0.028158745 0.03364259
000010 67 43 a9 3b 88 fb e0 3c 9f fd 5f 3d fb e8 10 bd
       0.0051655057 0.02746369 0.05468523 -0.035378437
000020 2b f3 05 bb 45 93 23 3b b3 5e 4d 3d ba 80 61 bd
       -0.002043913 0.0024959606 0.05013914 -0.055054404
000030 e4 fd 38 3d ae 25 0e 3d f6 e2 89 3c a4 3c 18 bd
       0.045164004 0.034703903 0.016831856 -0.037167206
000040 bb 41 67 bd e9 b9 28 3d fc d3 8d bc 42 74 17 3d
       -0.05645917 0.041192923 -0.017312996 0.036976106
000050 95 99 d7 bc 6d 1b 40 bc b2 86 23 3c a7 a1 f1 3c
       -0.02631835 -0.011725289 0.009980844 0.029496027
000060 16 a9 98 bd 14 b7 2b bd 1b 9a 0f bd 80 90 b7 3b
       -0.074541256 -0.041922644 -0.035059076 0.0056019425
000070 d9 b9 c4 bc f8 f0 1f 3c 66 e2 04 bd 24 76 8e bb
       -0.0240144 0.009762041 -0.032442473 -0.0043475796

fc_logvar.weight f4 [32, 256]
000000 18 e2 81 3c ec 13 6a 3d f3 27 83 bc 69 e2 9b 3b
       0.01585488 0.057147905 -0.01601026 0.004757215
000010 ca 9f 12 3c ec e2 a8 ba ee 9a 5c bc d6 e5 93 bc
       0.0089492295 -0.0012885011 -0.0134646725 -0.01805393
000020 e8 25 98 bc 80 47 af 3c dd 9e f3 bc 22 ce 5b 3b
       -0.018572763 0.021396399 -0.029738838 0.0033539613
000030 cc 9c 49 bd 35 19 0e 3d 47 e4 0e bc 02 10 1a 3d
       -0.0492218 0.034692008 -0.008721418 0.037612922
000040 77 a3 3f 3d 5f 72 57 bd b0 2f 1d bc c2 2f 0f 3b
       0.04678675 -0.052599307 -0.009593889 0.0021848534
000050 01 f7 11 bd 7b 85 d7 3b a1 c8 5f 3c a6 68 19 bb
       -0.035635952 0.0065771914 0.0136586735 -0.0023408323
000060 1b 8d d1 3b d6 65 31 3d 95 2d 1b 3d e8 43 94 bb
       0.006394995 0.04331001 0.037885267 -0.0045246966
000070 65 da 09 bd 28 90 29 3d da 35 77 3c 3c 2b 26 3c
       -0.033655543 0.041397244 0.015088523 0.010142144
000080 1b c2 fe 3b 27 ff 5a bd d3 a7 0a 3d 5c a7 7c bd
       0.007774604 -0.05346599 0.033851456 -0.061683044
000090 ff 67 b0 ba 07 77 01 bd 11 03 21 bc bb ce 52 bc
       -0.0013458728 -0.031607654 -0.009827391 -0.012866671
0000a0 64 79 76 bd 8c 50 fc 3c 14 50 b7 3c 3b 38 87 3c
       -0.06017436 0.030800126 0.022377051 0.016506305
0000b0 0b 93 73 3c 83 df cc bb e6 b0 1d 3c 44 7d 68 3c
       0.014866601 -0.0062522306 0.009624695 0.014190022
0000c0 40 b4 8e 3c 08 9e 05 3c b6 8e 88 3c 15 4b 07 bc
       0.017419934 0.008155353 0.016669612 -0.008257647
0000d0 2b 73 f9 3c ec 81 0e 3d 6d de 9e bd 2d c4 50 3c
       0.030450424 0.034791872 -0.07757268 0.012742084
0000e0 f8 fd ff 3c f1 93 08 3d 78 d8 e7 bc ef c0 50 bd
       0.031249031 0.033344213 -0.028301463 -0.050965246
0000f0 ae 46 7f 3d 0b 1d 9d bb 05 ef 53 bd e4 2a f4 bb
       0.062323265 -0.004794722 -0.05174162 -0.007451402
000100 be 8b 97 3b c0 a7 30 bc a7 eb 8e 3c 1d 9d 62 bb
       0.004624813 -0.010782182 0.017446352 -0.003457851
000110 55 5b 8f bb 8f d9 a8 bb 54 f5 fa ba cb 39 f5 ba
       -0.0043749013 -0.005152888 -0.00191466 -0.001870924
000120 26 0c 9f 3b 03 c2 30 bc a4 31 96 bc dd 68 bd bc
       0.004853743 -0.0107884435 -0.018334217 -0.023121292
000130 31 be d5 3c 53 14 96 bc 53 d0 27 3c 1a ae bd ba
       0.026091667 -0.018320238 0.010242539 -0.0014471442
000140 79 42 24 bd 75 56 e9 3b 71 e9 59 3d 5c 34 a0 3b
       -0.040102456 0.007120902 0.053201143 0.004889054
000150 b8 00 ab bc 94 27 41 3b 56 b5 21 bc 38 7f 9b bb
       -0.020874366 0.0029473053 -0.009869894 -0.0047453903
000160 ce a1 08 bd 46 ba c7 3c 13 a0 4c bb c9 96 5f 3b
       -0.033357434 0.024380814 -0.0031223341 0.0034116975
000170 5c a2 09 3d ca d1 85 3d 67 98 ac bb 1f 6d 0d bd
       0.033602104 0.06534155 -0.005267191 -0.034527894
000180 ff b3 68 3c 5b 8e aa bc de fe df 3b 03 22 96 3b
       0.014203071 -0.020819834 0.0068358025 0.004581691
000190 7d 2e 8b bc 87 09 42 3c a7 62 fd 3c 0c fe 40 bb
       -0.01698994 0.011843092 0.03093083 -0.0029448299
0001a0 73 2b c7 bb 14 d2 b9 bc f7 ba 43 bb 5a 91 f5 3c
       -0.0060781776 -0.02268318 -0.0029866078 0.029976536
0001b0 f8 7d a5 3b c6 a8 24 bc 67 4c 70 3d d6 df c2 3c
       0.005050417 -0.010050004 0.058666613 0.023788374
0001c0 69 aa 2f 3c 8e 7e 98 bb 90 b1 08 bd 00 af 79 bc
       0.010721781 -0.0046537584 -0.03337246 -0.015239477
0001d0 ac a1 b0 3c 7e 59 3a 3d b4 17 73 bc 6a fd 04 bd
       0.021561466 0.045495503 -0.014837194 -0.032468237
0001e0 de 1d 0d 3c 7f fc 55 3d 70 30 97 bd 13 d4 a7 3a
       0.008613078 0.052242752 -0.073822856 0.0012804292
0001f0 59 f9 65 bb 9b 25 85 bc 48 e9 a3 bc 0e 37 fa bc
       -0.003509125 -0.016253283 -0.020008698 -0.03054383
000200 02 f2 36 3c be df 5f bc e2 54 ec bb b2 b6 3f bd
       0.011166098 -0.013664184 -0.0072122673 -0.04680509
000210 8b de aa 3c f1 7e 4e 3d d7 14 96 bc 91 81 d5 bc
       0.02085807 0.05041403 -0.018320484 -0.026062759
000220 eb ca 75 3c ea 78 3e 3c cb 1b a6 3b 95 f6 13 bd
       0.015001993 0.011625508 0.005069231 -0.03612383
000230 2d 63 91 bc bd 8b 2b bd 72 6b 20 3c 71 2f 12 bc
       -0.017747486 -0.04188131 0.009791242 -0.008922444
000240 34 c9 4b bd ed d4 9c bd 26 eb 34 3d 6c d0 05 bc
       -0.04975243 -0.076578 0.044169568 -0.008167367
000250 64 9f 1e 3c 96 3e a6 3c e5 19 16 3d 21 d1 66 3c
       0.009681556 0.020293515 0.03664579 0.014087946
000260 cc 47 53 3c fc 09 4a bc 98 bb 0c bd 20 5c 88 bc
       0.012895536 -0.012331482 -0.03435859 -0.016645491
000270 f9 f1 75 3d 7d e5 4e bd 7f 1d b8 bb eb 0f 08 bc
       0.060045216 -0.050511826 -0.0056187506 -0.008304576
000280 75 70 19 3c a6 93 ad 3c 44 fb 5f 3c 37 e6 24 3d
       0.009365191 0.021188568 0.013670746 0.040258612
000290 bc f7 f4 bc fd 55 52 bb 12 09 ab 3c ca 06 90 3c
       -0.029903285 -0.003209471 0.020878348 0.017581362
0002a0 7c ae d4 bb 79 6f 1e 3b 9d 6d 08 3c d6 c6 5d 3c
       -0.0064905267 0.002417533 0.008326915 0.013536176
0002b0 4a 69 29 3c 5b ca 74 bd ed 3b 72 bc 32 4b aa 3c
       0.010340044 -0.059763294 -0.014784795 0.020787809
0002c0 2d a1 56 3d ba 29 59 3d 3b 6c af 3c e5 c2 e5 bb
       0.052399803 0.05301831 0.021413913 -0.0070117586
0002d0 da 81 b5 3c 30 f5 b7 bc 17 0d f5 bb 27 49 99 3c
       0.022156645 -0.022455782 -0.007478367 0.01871164
0002e0 c2 75 bb bc 55 39 0c 3c b5 91 19 3d 3c e5 40 bc
       -0.0228833 0.008558591 0.037492473 -0.011773404
0002f0 a6 0b 59 bc 5c 18 a9 bb 9c 86 96 bc 23 41 e5 bc
       -0.013247406 -0.0051603746 -0.018374734 -0.027985161
000300 da d6 82 3b 1a 29 02 3d 4e 4b 4c bb 92 c7 19 3b
       0.0039928975 0.03177748 -0.0031172815 0.00234649
000310 47 d5 de b9 f6 cc 30 3d 80 3c c6 3a 54 8c cb bb
       -0.00042502044 0.043164216 0.0015124232 -0.006211797
000320 d6 29 91 bc 6e 65 f1 3c b5 8c 6a 3d 38 52 19 bc
       -0.017720144 0.02946731 0.057263095 -0.009357981
000330 88 85 10 3c 1e 22 65 3c 3e 78 b9 3c 2f fe 75 bb
       0.008820899 0.013985185 0.022640344 -0.0037535538
000340 22 a8 d5 bc 66 db 61 bc 0c b8 8b bb 7a 55 ef 3b
       -0.026081149 -0.013785219 -0.0042638835 0.007303891
000350 85 6a 8c 3c 62 ca 58 bb 13 17 04 3d 43 43 84 bc
       0.017140636 -0.0033079614 0.032248568 -0.016145354
000360 d4 14 74 bb a1 47 cd 3c e5 4a 0c bd 1c 54 81 bc
       -0.003724386 0.02505857 -0.034251112 -0.015787177
000370 ca 75 0c 3d 80 32 0f bb 3e eb 58 3c 7d 2d 1e bc
       0.03429202 -0.0021850169 0.01323968 -0.0096544
000380 b7 59 25 bc 38 b3 6b ba 18 95 46 3d 2d 8f 32 3d
       -0.0100921905 -0.0008991244 0.04848203 0.043593574
000390 47 c7 f3 bc a8 88 45 3c 78 e0 7f bd 82 ba 3c bd
       -0.029758109 0.012056507 -0.06246993 -0.046076305
0003a0 68 3b f1 3d d9 6d 02 bd 95 ce a1 3a ff 42 90 bc
       0.11778909 -0.03184304 0.0012344891 -0.017610071
0003b0 76 d0 be 3a 15 a6 7f 3c 05 51 5a bd 8c 17 99 3c
       0.0014557976 0.015603562 -0.053299922 0.018687986
0003c0 43 5d ce 3b 65 6c ed bb fe be 9d 3d 2c e5 85 3d
       0.0062977388 -0.0072455877 0.077024445 0.06537852
0003d0 68 8d 3b 3d 64 a0 59 3d ec a5 7e bc c1 20 25 bc
       0.045789152 0.053131476 -0.015542489 -0.01007861
0003e0 05 cd 84 bc 21 29 70 3c 5a fb 18 3c 39 b3 28 bd
       -0.016211042 0.014658243 0.009337271 -0.041186545
0003f0 8c 79 98 3d c2 41 ed bc b4 78 97 bb ab 81 4c 3c
       0.07445058 -0.02896202 -0.004622543 0.012482087

fc_logvar.bias f4 [32]
000000 dc b8 e5 bb 3b 84 4a 3b 95 71 88 3c 7f 02 b1 bb
       -0.0070105623 0.003090157 0.016655723 -0.005401909
000010 c6 bf 93 bd ea 8b 18 bc 1e 72 6c be 5f 17 1f bf
       -0.07214312 -0.009310702 -0.23090407 -0.62145036
000020 81 ba f0 bb 91 c8 ed bc 50 16 81 3c 13 11 a7 3c
       -0.0073464517 -0.029026302 0.01575771 0.020393884
000030 f0 40 9a bc e7 29 2b bd 97 39 c0 bc f0 06 30 bc
       -0.018829793 -0.041788008 -0.023464961 -0.0107438415
000040 ed 75 6a bc 4d ee 70 be 68 e7 8b bb 57 a5 c3 bc
       -0.014310342 -0.23528405 -0.004269529 -0.023882551
000050 cc a5 e7 bb 4a fd 45 bd 57 69 f1 ba 61 5d a5 bd
       -0.007069325 -0.04833726 -0.0018418235 -0.08074451
000060 b2 f8 86 3c f6 ef 34 bc 41 6f 92 be df e0 ab 3c
       0.016476009 -0.011043539 -0.28600505 0.02098125
000070 af d7 db 3b aa 54 78 bc fd 8d 16 bf cd 6c 76 bd
       0.006709061 -0.015156904 -0.58810407 -0.060162354
